HW/HW01/models/model.ckpt (torch, 10548 bytes, 5 tensors)

layers.0.weight f4 [16, 117]
-0.06141022 -0.076219104 -0.060770392 0.012829676 0.012949839 -0.0047691166 -0.06867497 0.018623725
-0.051566903 -0.0009950697 -0.065486655 0.06486044 0.060685493 -0.07232681 -0.0045070946 -0.08691767
-0.065844856 0.019457921 0.059264816 0.03956548 -0.055722356 -0.026462168 -0.018603131 -0.07967737
0.07800373 0.044879742 0.0900952 -0.043517258 0.028610498 -0.08766926 0.068799354 0.038006432
0.05829767 0.039742373 -0.025283739 0.06501839 0.037932597 -0.072438195 0.035806037 0.010511868
-0.0073543116 -0.062039405 -0.08315394 -0.07628665 -0.057431024 -0.0685402 0.0055970177 0.07918326
0.035904057 0.07326084 -0.07387221 -0.0145209655 0.050067417 -0.08690647 -0.09221682 -0.067248575
-0.07964103 -0.018627442 0.026740938 -0.039196555 0.068729185 -0.011199959 -0.009085409 -0.0158441
-0.088046804 -0.038172934 0.03291478 0.091690056 -0.048361316 0.09103268 0.048748635 -0.025754154
-0.034233667 0.021516219 0.06818301 0.08249412 0.040001296 0.0056134835 0.014747456 0.05212549
0.030395009 -0.02831015 -0.004230574 -0.01276467 -0.029282868 0.07477368 0.08724324 -0.025922209
-0.004516959 0.024104156 -0.017702796 0.028003871 0.029006317 -0.084810816 -0.07499539 0.02497761
0.033507682 0.039507814 -0.08085315 0.047204755 -0.06792986 0.07127275 -0.041326698 0.010971464
-0.08226598 -0.022270188 0.024504147 0.07143498 -0.021344446 0.0280831 -0.04811033 -0.037377942
0.04919941 0.041063167 0.011413984 0.05028761 0.09214728 0.034873404 0.092272244 0.07528659
0.06527876 0.073880635 0.07158417 0.0020460188 -0.07255962 -0.035679597 -0.00078454614 0.032403626
-0.06358808 -0.052910306 -0.03119656 -0.007951327 0.058062427 0.07386 0.014830843 -0.01987128
-0.0032263175 -0.020136349 0.0536749 0.0049141347 -0.014554679 0.0413057 -0.06422487 0.08167543
0.06619341 0.015847407 -0.061886102 -0.03683105 -0.020958304 0.04186634 0.06014096 0.033454753
-0.026965253 -0.077609666 -0.002398841 -0.0809829 0.050797634 0.069154404 0.0030760244 0.030693062
0.081764646 -0.031209808 0.079887815 0.030781962 -0.028174229 0.024173357 0.012613587 -0.057323307
0.056703605 0.0817802 0.07604528 -0.06610251 -0.07500706 0.07671436 0.0672111 0.046846546
-0.07335829 0.070939 -0.025418088 -0.08368074 -0.06474597 0.045697547 -0.087580465 0.09011247
0.023348175 -0.013000809 0.021782525 0.074298136 0.07479646 0.024253048 0.019234717 0.08783663
-0.04315631 -0.030290056 0.015069373 -0.08207963 -0.061592076 -0.024991453 -0.0219393 -0.08422962
0.009949803 -0.0089835 -0.07569273 -0.051897597 -0.021708079 -0.08172 0.01361803 -0.07166186
0.0111017 -0.08936282 0.03238617 0.09197552 -0.009612419 -0.055138633 0.012870111 -0.039714504
0.043778636 0.01794929 0.028891288 0.031572305 -0.087739244 0.07096129 0.036504082 0.0039740503
0.008688085 0.0032028183 -0.022864483 -0.019677013 -0.08469536 -0.028497897 0.021585703 0.021785304
0.07901002 0.056169324 0.0123946 -0.06831377 0.043688305 -0.047758672 0.009494394 0.035980694
0.044798784 -0.053779934 0.015795916 -0.018592231 -0.0898095 -0.0005052611 -0.063923396 0.023423932
-0.087735176 -0.04451196 -0.09232998 -0.044214316 0.0034728423 0.030083016 0.030057661 0.017427266
00000000: 4889 7bbd c318 9cbd 60ea 78bd 9033 523c
00000010: 902b 543c 4046 9cbb 76a5 8cbd c890 983c
00000020: d137 53bd 006d 82ba de1d 86bd 8dd5 843d
00000030: 5a91 783d 1420 94bd 40b0 93bb e401 b2bd
00000040: abd9 86bd 3866 9f3c aabf 723d 6a0f 223d
00000050: 203d 64bd 30c7 d8bc 9865 98bc e42d a3bd
00000060: 6bc0 9f3d d2d3 373d d583 b83d 273f 32bd
00000070: 9060 ea3c f18b b3bd ade6 8c3d a2ac 1b3d
00000080: 8ac9 6e3d e6c8 223d d81f cfbc 5d28 853d
00000090: 365f 1b3d 7a5a 94bd 5aa9 123d f839 2c3c
000000a0: 70fc f0bb 081d 7ebd 9d4c aabd 2d3c 9cbd
000000b0: cb3c 6bbd ce5e 8cbd 3067 b73b d52a a23d
000000c0: 2210 133d c709 963d 504a 97bd 58e9 6dbc
000000d0: 7e13 4d3d 05fc b1bd 2cdc bcbd 9fb9 89bd
000000e0: d61a a3bd 9498 98bc d00f db3c 918c 20bd
000000f0: e3c1 8c3d 0880 37bc f8da 14bc 7ccb 81bc
00000100: e251 b4bd 395b 1cbd a6d1 063d ffc7 bb3d
00000110: 8416 46bd 576f ba3d a6ac 473d 60fa d2bc
00000120: 9a38 0cbd c842 b03c 89a3 8b3d adf2 a83d
00000130: 66d8 233d 50f1 b73b 509f 713c 8a81 553d
00000140: f4fe f83c b0ea e7bc a0a0 8abb e822 51bc
00000150: a0e2 efbc f122 993d 95ac b23d d05a d4bc
00000160: 0003 94bb 1476 c53c 7405 91bc 6068 e53c
00000170: a89e ed3c 4bb1 adbd 2f97 99bd d89d cc3c
00000180: 5a3f 093d f2d2 213d 5696 a5bd c659 413d
00000190: cf1e 8bbd 73f7 913d 2f46 29bd a8c1 333c
000001a0: 117b a8bd f86f b6bc ecbc c83c 814c 923d
000001b0: 8cda aebc 880e e63c 560f 45bd 9d19 19bd
000001c0: 5285 493d da31 283d b801 3b3c 62fa 4d3d
000001d0: b7b7 bc3d 6ad7 0e3d 3bf9 bc3d db2f 9a3d
000001e0: dfb0 853d bb4e 973d b99a 923d 8016 063b
000001f0: 239a 94bd c524 12bd 00aa 4dba aab9 043d
00000200: 783a 82bd 7ab8 58bd ee8f ffbc 4846 02bc
00000210: ded2 6d3d e943 973d 10fd 723c 18c9 a2bc
00000220: a070 53bb fcf4 a4bc 36da 5b3d c006 a13b
00000230: c076 6ebc 2a30 293d 5488 83bd 7345 a73d
00000240: 6990 873d 6cd2 813c 487c 7dbd 28dc 16bd
00000250: c0b0 abbc 0a7c 2b3d 5e56 763d da07 093d
00000260: 3ce6 dcbc d1f1 9ebd e035 1dbb 5dda a5bd
00000270: 2e11 503d d3a0 8d3d 2097 493b 0470 fb3c
00000280: 3974 a73d b6ab ffbc 399c a33d 742a fc3c
00000290: a4cd e6bc 3407 c63c 38a9 4e3c d8cb 6abd
000002a0: 0a42 683d 617c a73d a1bd 9b3d c160 87bd
000002b0: 4d9d 99bd 6b1c 9d3d f9a5 893d 2ae2 3f3d
000002c0: df3c 96bd 7748 913d 9839 d0bc cf60 abbd
000002d0: 8999 84bd 5a2d 3b3d 635d b3bd e38c b83d
000002e0: ac44 bf3c 5801 55bc 4471 b23c 9f29 983d
000002f0: e32e 993d 54ae c63c 2092 9d3c b1e3 b33d
00000300: acc4 30bd da22 f8bc 88e5 763c 5d19 a8bd
00000310: f947 7cbd e0ba ccbc 0cba b3bc 9480 acbd
00000320: 8004 233c 882f 13bc ca04 9bbd 9392 54bd
00000330: 24d5 b1bc d15c a7bd 281e 5f3c 74c3 92bd
00000340: e8e3 353c db03 b7bd 5ca7 043d a95d bc3d
00000350: 687d 1dbc 0cd9 61bd 28dd 523c adab 22bd
00000360: 3a51 333d 640a 933c 6cad ec3c f651 013d
00000370: a2b0 b3bd 2754 913d 4e85 153d c038 823b
00000380: 7858 0e3c 60e6 513b 4c4e bbbc b031 a1bc
00000390: c374 adbd 6c74 e9bc 80d4 b03c 1877 b23c
000003a0: 01d0 a13d ce11 663d b812 4b3c 17e8 8bbd
000003b0: 82f2 323d 999e 43bd 608e 1b3c 7e60 133d
000003c0: ee7e 373d 5948 5cbd 7066 813c bc4e 98bc
000003d0: 0bee b7bd 8073 04ba 45ea 82bd 8ce3 bf3c
000003e0: 80ae b3bd 2c52 36bd 8017 bdbd 121a 35bd
000003f0: a098 633b a870 f63c 7c3b f63c a0c3 8e3c

layers.0.bias f4 [16]
0.0726467 -0.0808551 0.02824331 0.05555422 -0.03304699 -0.06420638 0.018150888 -0.023307897
-0.07542848 0.07509508 -0.077728674 -0.0036414415 0.081228934 0.012991652 0.0420961 -0.029599607
00000000: cbc7 943d 5c97 a5bd 845e e73c d28c 633d
00000010: 485c 07bd a27e 83bd 2cb1 943c 34f0 bebc
00000020: 3f7a 9abd 73cb 993d 3630 9fbd 40a5 6ebb
00000030: 5b5b a63d f0da 543c f66c 2c3d e07a f2bc

layers.2.weight f4 [8, 16]
-0.07973504 0.1431512 0.08035514 -0.24301133 -0.013131529 -0.14133784 -0.08159548 0.24328217
-0.18953955 -0.1394948 -0.01935023 -0.10811669 -0.14009672 0.05798793 -0.08410871 -0.0011110008
-0.027003706 -0.21795699 -0.0071776807 -0.14790338 0.17601219 0.030419856 -0.22504398 -0.10824588
0.005098313 0.02972138 -0.13497323 0.24359515 -0.23485744 -0.17526758 0.13457131 -0.18027577
-0.017065614 0.037991673 -0.17840311 0.05568877 -0.124741375 0.21631593 -0.010327339 -0.02063319
0.03792095 -0.23862675 0.087769836 -0.15151376 -0.11615223 0.20988607 0.10910803 -0.13230631
0.041142523 -0.13631582 0.24167219 0.17672917 -0.20687294 0.19953996 -0.009779125 -0.17912838
-0.09504786 -0.08360064 -0.24247259 -0.18241334 0.050742984 0.10387775 0.0963563 -0.23518974
-0.17482984 0.068836 -0.035542727 -0.19110334 -0.11775184 -0.055502415 -0.029080927 -0.027899504
0.21189436 0.1346077 -0.20974481 0.16815299 0.054017633 -0.2027517 -0.11788401 0.12596479
-0.1275098 0.16061091 0.23629484 0.055116057 -0.23774078 -0.18901637 -0.1785587 -0.14801174
0.08419049 -0.062289864 -0.13854668 0.039687455 0.12123844 -0.24737477 0.0075280666 0.11302155
0.22119188 -0.24119589 0.03729388 0.07105282 -0.13095364 -0.23053178 0.08923271 0.031996936
0.044525832 -0.03148654 0.20982769 -0.19702747 -0.1900365 -0.20661008 0.22233623 -0.22859082
-0.07712975 -0.23199308 -0.075939596 -0.11098975 -0.1395666 -0.1375942 -0.041261643 -0.1431154
0.0807378 0.023050338 0.07855716 0.014954656 0.08950144 -0.041028112 -0.16945076 -0.16536903
00000000: 204c a3bd 3a96 123e 3c91 a43d f6d7 78be
00000010: a025 57bc deba 10be 881b a7bd f61e 793e
00000020: a816 42be bad7 0ebe 6084 9ebc 486c ddbd
00000030: 8475 0fbe c084 6d3d 3041 acbd 009f 91ba
00000040: e036 ddbc 1e30 5fbe c032 ebbb fc73 17be
00000050: 8a3c 343e 1033 f93c ee71 66be 04b0 ddbd
00000060: c00f a73b 407a f33c 6c36 0abe 0271 793e
00000070: 787e 70be 5879 33be 10cd 093e 369a 38be
00000080: 30cd 8bbc 289d 1b3d 4eaf 36be e819 643d
00000090: 6878 ffbd ec81 5d3e 0034 29bc f006 a9bc
000000a0: 0053 1b3d 925a 74be acc0 b33d 6c26 1bbe
000000b0: 38e1 edbd 60ec 563e 0874 df3d 4e7b 07be
000000c0: 1085 283d 6096 0bbe ea78 773e 7ef8 343e
000000d0: 80d6 53be 3454 4c3e a038 20bc 6e6d 37be
000000e0: 74a8 c2bd d036 abbd bc4a 78be 90ca 3abe
000000f0: e0d7 4f3d dcbd d43d 7456 c53d 94d5 70be
00000100: 9806 33be e4f9 8c3d 4095 11bd 98b0 43be
00000110: e027 f1bd 8056 63bd 203b eebc 808d e4bc
00000120: d6fa 583e 9ad6 093e 58c7 56be 4c30 2c3e
00000130: 9841 5d3d 249e 4fbe 2c6d f1bd eafc 003e
00000140: ee91 02be 3077 243e 46f7 713e 60c1 613d
00000150: 5272 73be 828d 41be 18d8 36be 6490 17be
00000160: 106c ac3d a823 7fbd 2edf 0dbe 508f 223d
00000170: dc4b f83d d04f 7dbe 00ae f63b d877 e73d
00000180: 2080 623e 0efc 76be 78c1 183d 2484 913d
00000190: b618 06be 8610 6cbe a4bf b63d 380f 033d
000001a0: b860 363d 08f8 00bd 12dd 563e 92c1 49be
000001b0: ee98 42be 9891 53be 1cac 633e b613 6abe
000001c0: 34f6 9dbd 988f 6dbe 3886 9bbd 984e e3bd
000001d0: 8cea 0ebe 7ee5 0cbe f801 29bd d88c 12be
000001e0: dc59 a53d 10d4 bc3c 94e2 a03d 6004 753c
000001f0: 884c b73d 180d 28bd 8084 2dbe 8056 29be

layers.2.bias f4 [8]
0.020316511 -0.14481717 -0.13139719 -0.1475178 0.11337802 -0.026000828 0.15667441 0.2179546
00000000: d06e a63c f44a 14be fc8c 06be e80e 17be
00000010: bc32 e83d b0ff d4bc 426f 203e 7e2f 5f3e

layers.4.weight f4 [1, 8]
0.2956991 0.111587524 0.2555932 0.03289929 0.31337145 -0.24626133 -0.10974096 -0.22836696
00000000: df65 973e 0088 e43d 1ddd 823e 68c1 063d
00000010: 3972 a03e ee2b 7cbe debf e0bd 07d9 69be
